Dự án 2/data.pth (torch, 22257 bytes, 6 tensors)

l1.weight f4 [8, 196]
0	0x3d59b26c	0.053148672
1	0x3d0242d4	0.031802014
2	0x3a527680	0.0008028522
3	0xbd867c5b	-0.06566688
4	0xbd262878	-0.040565938
5	0x3ccb3a5e	0.024808105
6	0x3cab035c	0.020875625
7	0x3d24c35b	0.040225368
8	0x3bd71fb0	0.0065650567
9	0xbce86032	-0.028366182
10	0x3bfc832f	0.007706068
11	0xbd294b60	-0.04133165
12	0xbb90ee60	-0.0044229478
13	0x3d8b21a1	0.067935236
14	0xbc5fb230	-0.013653323
15	0x3d00e88c	0.031471774
16	0xbd072e33	-0.033003043
17	0x3c848420	0.016176283
18	0x3c0fc980	0.008776069
19	0xbd20f5fc	-0.03929709
20	0xbd01c62c	-0.031683132
21	0x3cacdd33	0.02110157
22	0x3c05508c	0.00813688
23	0xbd2ef190	-0.04271084
24	0x3d8e4e4d	0.069485284
25	0xbd076ef8	-0.033064812
26	0x3d13af00	0.036055565
27	0x3cc4521c	0.023964934
28	0xbd243467	-0.040089037
29	0x3d28c3a7	0.041202214
30	0xbd5aa1e8	-0.053377062
31	0xbd87e27e	-0.06634997
32	0x3ccbc5fc	0.02487468
33	0x3c613c90	0.013747349
34	0xbd918e57	-0.07107227
35	0x3d8f9e75	0.07012645
36	0xbc220be4	-0.00989053
37	0x3d2c328e	0.0420404
38	0x3cac0f50	0.021003395
39	0xbcc47032	-0.02397928
40	0xbc681b88	-0.01416672
41	0xbd0a6413	-0.033786844
42	0xbd012957	-0.031533565
43	0xbd12d4f7	-0.03584763
44	0x3cabd2ce	0.020974543
45	0x3d78303a	0.060592867
46	0x3b759640	0.003747359
47	0xbd3c1b8c	-0.04592471
48	0xbc283e88	-0.010268815
49	0x3d1be380	0.038058758
50	0xbd021023	-0.03175367
51	0x3d905c33	0.070488356
52	0xbcaf7d6a	-0.021422107
53	0x3d6ef61e	0.058340184
54	0xbcf33aee	-0.029691186
55	0x3b6ec440	0.0036432892
56	0x3d8c5ee7	0.06854039
57	0xbd0f0217	-0.034914102
58	0x3bbc7e20	0.00575234
59	0xbd7871ac	-0.06065528
60	0xbd8ccd23	-0.06875064
61	0x3c87a314	0.016557254
62	0x3d0f5ac8	0.034998685
63	0x3d91a859	0.07112188
64	0xbd21ad7c	-0.03947209
65	0x3becaab0	0.007222496
66	0xbbdc4283	-0.006721796
67	0xbd417295	-0.047228415
68	0x3c6f5038	0.014606528
69	0x3d018182	0.03161765
70	0x3d11907c	0.03553818
71	0xbd449d28	-0.04800144
72	0x3cb3c994	0.021946706
73	0x3c394610	0.011308208
74	0xbc9cc1bc	-0.019135348
75	0x3d3d1898	0.046166033
76	0x3d260a8a	0.040537395
77	0x3d0f4e0a	0.034986533
78	0xbd6816b5	-0.05666228
79	0xbd2ab660	-0.041677833
80	0xb7953000	-1.7784536e-05
81	0x3cb6053c	0.022219293
82	0x3d204b9c	0.039134607
83	0xbd500215	-0.050783236
84	0xbd23981e	-0.039939992
85	0xbc86a9dc	-0.016438417
86	0x3cffd184	0.031227835
87	0x3d67b3d2	0.056567974
88	0x3d77ce52	0.060499497
89	0x3d29b470	0.041431844
90	0x3d61d637	0.05513593
91	0x3d16d2a2	0.03682197
92	0x3d7d4592	0.061833926
93	0x3d8c4f99	0.068511195
94	0xbd7d2cf4	-0.06181045
95	0x3bacd210	0.005274065
96	0xbd2fc885	-0.04291584
97	0xbd216580	-0.03940344
98	0x3c981034	0.018562414
99	0xbc3522b8	-0.011055641
100	0xbc682c24	-0.01417068
101	0x3d8fd753	0.07023492
102	0xbcfae0fc	-0.030624859
103	0xbd3fcba5	-0.04682507
104	0xbd91cc78	-0.071190774
105	0x3d5d52ae	0.054033928
106	0x3cf3c7f0	0.029758424
107	0x3cd12204	0.025528915
108	0xbd893377	-0.06699269
109	0x3d1b3c98	0.037899584
110	0x3cc69400	0.024240494
111	0xbc9b46b8	-0.01895462
112	0x3d366476	0.0445294
113	0x3c9a7314	0.018853702
114	0xbd22891a	-0.03968153
115	0x3ceba1a0	0.028763592
116	0xbb925160	-0.004465267
117	0xbd323cf3	-0.043515157
118	0x3d413bd0	0.047176182
119	0x3d8c6cc9	0.068566866
120	0xbd233af7	-0.039851155
121	0xbd1128dc	-0.035439357
122	0x3d2f673c	0.04282306
123	0xbd43d3cc	-0.047809407
124	0x3d06f4fe	0.032948487
125	0x3c56fc10	0.01312162
126	0x3cb64474	0.022249438
127	0xbab328c0	-0.0013668761
128	0x3d8cad51	0.06868995
129	0xbcd4478e	-0.025913026
130	0xbce3b918	-0.02779822
131	0x3ccb28fa	0.024799813
132	0xbd8b5506	-0.06803326
133	0xbd2205fa	-0.03955648
134	0x3b7536c0	0.0037416667
135	0x3d5a158a	0.053243198
136	0x3c9906d8	0.018680021
137	0xbd7b7ffa	-0.061401345
138	0xbd6088a0	-0.054817796
139	0x3d2249e8	0.039621264
140	0xba9963a4	-0.0011702669
141	0xbd8842a5	-0.066533364
142	0xbd619c35	-0.05508061
143	0xbd7e93c5	-0.062152643
144	0x3d64eb52	0.05588848
145	0xbcff4eb8	-0.031165466
146	0xbc88516e	-0.016640391
147	0xbd231f2e	-0.039824657
148	0xbc5031c0	-0.012707174
149	0x3c204c3d	0.009783802
150	0xbbf46150	-0.0074578896
151	0x3d49bbff	0.049251553
152	0xbcf9db7c	-0.030500166
153	0xbc877c12	-0.016538654
154	0xbd467e20	-0.048460126
155	0x3d7a9b05	0.061182994
156	0xbd50abc5	-0.050945062
157	0xbd43cede	-0.047804706
158	0xbd1165d7	-0.035497513
159	0x3caf47f4	0.021396615
160	0x3cc02e30	0.023459524
161	0x3c9d316b	0.019188603
162	0x3ce93460	0.028467357
163	0x3d765895	0.060143072
164	0x3a9fa200	0.0012179017
165	0xbc286c88	-0.010279782
166	0x3cc2cd64	0.023779579
167	0x3cb456e4	0.022014089
168	0x3d5e342e	0.05424898
169	0xbcd09b58	-0.025464699
170	0x3d3d10b6	0.046158515
171	0xbd8cb3f8	-0.06870264
172	0xbd109bda	-0.03530488
173	0x3b0f3220	0.0021849945
174	0x3c8539a4	0.016262837
175	0xbc35d58f	-0.01109828
176	0x3d299fa8	0.041412026
177	0x3d3d30e0	0.04618919
178	0xbd2d8095	-0.042358954
179	0xbd77dfec	-0.060516283
180	0x3d7105f6	0.058843575
181	0xbb8cce80	-0.0042970777
182	0x3d69dcd2	0.057095356
183	0xbd71914e	-0.058976464
184	0xbcb35ad2	-0.021893892
185	0x3d599602	0.053121574
186	0xbd8d2bf3	-0.06893148
187	0x3bd04a00	0.0063564777
188	0xbd64d415	-0.05586632
189	0x3d00790c	0.03136544
190	0xbbe73430	-0.007055782
191	0xbd131d35	-0.035916526
192	0xbd064143	-0.032777082
193	0xbd8a97c8	-0.06767231
194	0xbd1500fe	-0.0363779
195	0x3d3a8d2e	0.045544796
196	0x3f2b4a88	0.669106
197	0xbe0944c9	-0.13405146
198	0xbf3e6272	-0.74368966
199	0xbf1d6862	-0.614874
200	0xbe52bc8a	-0.20579734
201	0xbf098b2b	-0.5372798
202	0x3ef4faa2	0.47847468
203	0xbf613172	-0.8796607
204	0xbea04cd1	-0.31308606
205	0xbf156012	-0.58349717
206	0x3f73e78a	0.95275176
207	0x3de5c32a	0.11218865
208	0x3daa907a	0.08328338
209	0xbf0caf0d	-0.54954606
210	0x3f106a46	0.5641216
211	0x3f3d1d90	0.73873234
212	0xbe5799db	-0.21054785
213	0x3f3a4963	0.7276823
214	0xbf29636d	-0.66167337
215	0x3f7ee6de	0.99571025
216	0x3f088220	0.53323555
217	0xbf4bffcb	-0.79687184
218	0x3ee6a26a	0.45045787
219	0xbe878c1e	-0.26474088
220	0x3e9fbc3d	0.31198302
221	0xbeabc23d	-0.3354663
222	0x3cc22b88	0.023702398
223	0xbe03ab0b	-0.12858216
224	0x3f769601	0.9632264
225	0x3ef6a508	0.48172784
226	0x3f9a0e30	1.203558
227	0x3f8ee247	1.1162804
228	0xbf0bd906	-0.54628026
229	0x3f1d273a	0.6138798
230	0x3ea1371c	0.31487358
231	0x3f23d6fc	0.63999915
232	0xbf30082b	-0.68762463
233	0x3ef707b2	0.4824806
234	0x3f7945e9	0.973723
235	0xbeb5948c	-0.35464895
236	0xbf0d6f82	-0.5524827
237	0xbf4be60b	-0.7964789
238	0x3f5cbcb1	0.8622542
239	0x3e42ef6e	0.19036648
240	0xbefb2f50	-0.49059534
241	0xbf0fd84c	-0.5618942
242	0x3eeed53f	0.4664707
243	0x3f7a1e5f	0.9770259
244	0x3f242169	0.6411348
245	0xbe8b3907	-0.27191946
246	0x3f56f7b8	0.8397174
247	0xbf8dfa9d	-1.1092106
248	0x3effca77	0.49959156
249	0x3f541e45	0.8285869
250	0x3f1b2ce7	0.6061539
251	0x3f170ee5	0.590071
252	0x3f04b790	0.51842594
253	0xbe302f23	-0.17205481
254	0x3f012e99	0.5046173
255	0x3f36c376	0.71392

l1.bias f4 [8]
0	0xbd5355b0	-0.05159539
1	0x3fa9fed1	1.3280889
2	0xbd6c7de5	-0.05773725
3	0x3f18985a	0.5960747
4	0x3f2fef6b	0.687247
5	0x3f3a6ee7	0.72825474
6	0x3f7542f1	0.9580527
7	0x3f4a4581	0.79012305

l2.weight f4 [8, 8]
0	0xbd1d6576	-0.03842684
1	0x3f0e284d	0.55530244
2	0x3e9fcdf4	0.31211817
3	0xbff1c446	-1.8888023
4	0xbfa30dd5	-1.2738596
5	0x3e0a4d88	0.13506138
6	0x3ff790b2	1.9341033
7	0x3fc03a47	1.5017785
8	0xbe8b006e	-0.27148765
9	0x3fa5b637	1.2946233
10	0x3e9bf509	0.30460384
11	0x3ea4b781	0.32171252
12	0xbe4887ca	-0.1958305
13	0x3f53d148	0.8274121
14	0xbffc1aa6	-1.9695632
15	0x3fe4db08	1.7879343
16	0x3e47f972	0.1952875
17	0x3bab29ed	0.005223504
18	0x3e3cedd2	0.18450096
19	0x3fcccc3d	1.5999829
20	0x3ee20e27	0.44151422
21	0x3f06c36a	0.5264193
22	0xbe9fa0bc	-0.31177318
23	0x400c5cae	2.1931567
24	0xbdfba20c	-0.12286767
25	0x3fb0da8d	1.3816696
26	0xbd408d60	-0.047009826
27	0x3faa1940	1.3288956
28	0x3eaabec3	0.33348665
29	0xbe36f60d	-0.17867298
30	0xbef1466d	-0.47124043
31	0xbfe9280a	-1.8215344
32	0x3e996e53	0.29966983
33	0x4007d4b1	2.1223567
34	0xbe6c16e0	-0.23055601
35	0x3f6327ed	0.88732797
36	0xbf76cacc	-0.96403193
37	0xbf0a706f	-0.5407781
38	0xbf370a28	-0.7149987
39	0xbf327df9	-0.6972347
40	0xbea9e15a	-0.33179742
41	0x3ed8424b	0.42238078
42	0x3e72d4a6	0.23713931
43	0xbf947508	-1.1598215
44	0x4019df71	2.4042628
45	0x4019c90f	2.4028966
46	0x3fb518ab	1.4148153
47	0xbfb1d6a5	-1.3893629
48	0x3e97a4c3	0.2961789
49	0xbe560921	-0.2090192
50	0xbe8dfefa	-0.27733594
51	0xbce91110	-0.028450519
52	0x3ddf5b48	0.109060824
53	0xbe74d858	-0.23910654
54	0x3d3fed20	0.046857
55	0xbdd182c0	-0.10230017
56	0x3d9bb05c	0.07601997
57	0x3f82fe0a	1.0233777
58	0x3e94aa02	0.29035956
59	0x3fbdaf33	1.4819092
60	0xbfdbc7a4	-1.71703
61	0xbf8c0fe1	-1.0942346
62	0x4000425e	2.0040507
63	0x3eecb4d6	0.46231717

l2.bias f4 [8]
0	0x3f3d7c4a	0.74017775
1	0x3db12626	0.08649854
2	0xbe1e9ee5	-0.15490301
3	0x3f1569d6	0.5836462
4	0x3f37b35f	0.71758074
5	0x3f7e3a88	0.9930806
6	0xbe194c12	-0.14970425
7	0x3f635569	0.888022

l3.weight f4 [12, 8]
0	0x3f9a421d	1.2051426
1	0xc025adc4	-2.5887308
2	0xbd85d083	-0.06533911
3	0xbfcfb4b6	-1.6227024
4	0xbffb9690	-1.9655323
5	0xbf57e67a	-0.84336054
6	0xbdb24a44	-0.08705571
7	0x3eed7fda	0.46386606
8	0xbbbc3518	-0.005743634
9	0xbf8fd06b	-1.1235479
10	0xbf6f060a	-0.9336859
11	0x3ec2637c	0.37966526
12	0x3f2851e2	0.65749943
13	0xbfaa349f	-1.3297309
14	0xbe2abcdb	-0.16673605
15	0x3f31e602	0.6949159
16	0xc0008547	-2.0081346
17	0x3eae80d3	0.3408266
18	0xbf1969d0	-0.5992708
19	0x3f6e678f	0.9312677
20	0x3f678694	0.90439725
21	0xbfea615d	-1.8310963
22	0xbd1ea2e0	-0.03872955
23	0xbc8cee10	-0.01720336
24	0x3f229667	0.63510746
25	0xbe2c6b26	-0.16837749
26	0x3f0bfb96	0.54680765
27	0xc0062c62	-2.096459
28	0xbfbee9f4	-1.4915147
29	0xbd23ff2e	-0.04003828
30	0xbd80c9d8	-0.06288499
31	0xbf75e920	-0.96058846
32	0xbf08f0db	-0.53492516
33	0xbfbc294e	-1.4700105
34	0xbefe36a6	-0.49651068
35	0x3c9c1f6c	0.019057952
36	0xbf9d443e	-1.2286451
37	0x3f9635ca	1.1735165
38	0xbeb33cf6	-0.35007447
39	0xc014f16b	-2.327235
40	0xbfd602dc	-1.6719623
41	0x3f51d190	0.8196039
42	0x3f8a3dd9	1.0800124
43	0xbfe43de9	-1.7831393
44	0xbfee8761	-1.8635064
45	0x3d25d6c3	0.040488016
46	0xbd7505d8	-0.059820026
47	0xbfd07500	-1.6285706
48	0xbff368ff	-1.9016417
49	0xc0028f84	-2.0400095
50	0xbdc72906	-0.097246215
51	0x3f5a9b4d	0.8539322
52	0x3e0caa30	0.13736796
53	0x3c38f7e5	0.011289571
54	0xbe7d96b6	-0.24764523
55	0x3e763c77	0.24046503
56	0xbf7c262e	-0.9849576
57	0x3f352b9a	0.70769656
58	0xbf06fdbb	-0.5273091
59	0x3df67905	0.120348014
60	0x3eab27ee	0.334289
61	0x3e32fbb7	0.17478834
62	0xbe64143f	-0.22273348
63	0xbfa6de64	-1.3036618
64	0xbed4b26a	-0.4154237
65	0xbf75405a	-0.9580132
66	0x3f61bd65	0.8817962
67	0xbfb5a2a1	-1.4190255
68	0xbf97c55a	-1.1857102
69	0xbff21a8c	-1.8914351
70	0xbe214fa5	-0.15753038
71	0x3f677104	0.90406823
72	0x3f3132e7	0.69218296
73	0xc00a25c6	-2.1585555
74	0xbfa32a7c	-1.274734
75	0xc01f11b8	-2.4854565
76	0xbfe0b784	-1.7556005
77	0x3f52254f	0.8208818
78	0x3d08e9d0	0.033426106
79	0xbe104d91	-0.14092089
80	0x3f107c37	0.56439537
81	0xc0364a24	-2.8482752
82	0xc035a37c	-2.8381033
83	0xbe9f1ca4	-0.3107654
84	0x3d7a11d9	0.061052177
85	0xbcc99fdc	-0.02461236
86	0x3cf5f5f0	0.030024499
87	0x3f22a7fa	0.6353756
88	0xbe42016f	-0.1894586
89	0x3f3a7b3a	0.7284428
90	0xbc3cf0e6	-0.011532044
91	0xbec47706	-0.38372058
92	0x3ea72f87	0.32653448
93	0xbfac959f	-1.3483161
94	0x3e929b59	0.28634146
95	0xbeb64e0b	-0.35606417

l3.bias f4 [12]
0	0x3e666fdc	0.22503608
1	0xbe43603b	-0.19079678
2	0xbdcd775a	-0.1003253
3	0xbef0ffae	-0.47070068
4	0x3d8b63bb	0.068061315
5	0x3e70c5ef	0.23513006
6	0x3ead7e8c	0.3388561
7	0xbd839fa6	-0.06426935
8	0x3e1aec83	0.15129285
9	0x3da99839	0.08280987
10	0xbe4771ec	-0.19477051
11	0xbec3e9d2	-0.38264328
