data.pth (torch, 12401 bytes, 6 tensors)

l1.weight f4 [8, 196]
00000000: f4b9 ac3f 594c 82be 8f18 eebd 33b3 9e3e
00000010: cef3 d8be 812d a43f e0de 0d3f 2442 a1bf
00000020: 9f6d 84be f949 c13e 3c62 1f3f 8aa7 b5be
00000030: baa9 81be 1c22 8b3f c982 f63e 2e65 563f
00000040: 51a8 5fbe 0774 19bf dc27 85bf 8fcb 0e3e
00000050: 9d23 c93e a8be 0d3f 8351 483f 038a 233f
00000060: 770e 053f f620 09bf 040b 98be 8d0f 133f
00000070: 9ed0 e1bc 6afc f73e c1df 633c 08f6 9e3f
00000080: 8187 b3bd ad96 f73e 2640 9cbd d66b 70bf
00000090: 3409 65bf 5fe8 0e3f c36d 34bf d450 133f
000000a0: 6c7d e73e 8b71 b13e 755e 36bf d77d 773e
000000b0: f0fb 1cbe 4225 13bf 031c b8be fcc1 2cbf
000000c0: a992 d6be 5806 803f d093 05bf 1e7d 2c3f
000000d0: e76d e73e 76d0 a33e 84c0 d5be af6a 5c3f
000000e0: 0b7c 17be 10d3 75be 17b8 473f 212b 543d
000000f0: acb8 6f3f 8d5c 04bf 0409 0a3f 5cfb 00bf
00000100: 39e8 2abe 37a2 31bf 58ba 3bbf 9ff8 9e3e
00000110: ff17 8bbe 28ac 59bf 221d 183e 8cd2 b03d
00000120: 1a18 30be 346b 993d 2780 b03e 315b 7f3e
00000130: 6f33 0b3f 50bf d83e 2a8c 193f e87e 47bf
00000140: 631c 0c3f 8e01 81be 10ed 1e3f f1cb 293f
00000150: 0ec5 e53c f688 f0bc 4168 24bf 4f74 ec3b
00000160: dd85 703f d9d4 273f 9dcb b03d 443d 65bf
00000170: 10b7 64bf eb93 db3d 1047 b53e 6b02 a6be
00000180: e099 d5be 9f6a f03e b7a6 643f 2b42 46be
00000190: d43c 2bbf 7dba b93e 8924 bfbe 1fee 1e3f
000001a0: 7f4b d33e e877 c7be 9eb7 033e ae0b 763e
000001b0: b5a2 7dbd 1b3a 28bd 799d 553e adbd 0dbe
000001c0: 8ae2 903e cabf 1ebe fb63 d23d 1709 05bf
000001d0: db98 f2be 01ae 173f cce2 1c3f 396d 063e
000001e0: 5b82 2d3f 3414 143e 9437 883f a95c 613e
000001f0: 99f8 303f 0a07 993d 1fd8 2d3e 7917 253f
00000200: 016c 373f daf4 cc3e 222a 963f f8c3 5abe
00000210: abc7 f8be 4b28 7a3e 9d6c 773e 0940 fd3c
00000220: 997f 083f 6cb7 103f 07bf 373f 510a 12bf
00000230: d0d1 4c3e ee12 d83e 00ee e73e f8a1 643f
00000240: 6145 133f f59b 853f 9fd0 07bf fa3c 5cbf
00000250: f460 1d3f dfa6 25bf 5179 46be 62d1 0abf
00000260: afe1 e0be e587 143f 7dd6 fb3e 983d be3f
00000270: 6e8b 023e 30f8 3fbf 32bb 133e cf94 143f
00000280: f678 273f e097 043f d099 4f3f 4612 57bf
00000290: 57a8 9e3e 573e 333f 0260 aa3e 5f6a 1cbf
000002a0: 4d8f 8f3e adbc 23bf ac6b efbd 5d42 fe3e
000002b0: b162 1f3f 7ca5 ff3e 3c4b 303f 5542 5dbf
000002c0: 3fdd 853b 0200 2d3f 1d73 2d3f 563a 4dbf
000002d0: 2bda 653f 6e16 29bf b059 8bbd 41d0 00be
000002e0: d7c6 4f3f 3771 1c3f a3bb 4ebe abde 58bf
000002f0: 2867 78be f40f 88bf f988 6bbf 3445 f13e
00000300: 94bd 8f3e cf8e 9e3f 91cd b8be e9a5 073f
00000310: 00bb 7d3b 5a57 43bd fc9c fabc b861 dcbc
00000320: 85e5 02bd cc87 12bd 6ed2 653d 3565 31bd
00000330: 53ca 37bd 78a8 143d 2ac9 59bd ecc1 49bd
00000340: 609c b4bb 385a c33c 07c6 08bd c0c3 5d3c
00000350: 8a83 a3bc 20a3 b4bb f8b6 11bc 82d1 80bd
00000360: 6a78 c2bc 81f2 8c3d 4e43 0fbd f2aa 5f3d
00000370: d52b 7cbd 1e40 4fbd 3c99 443d 31cc 67bd
00000380: f18c 6a3d a04d ec3b 3e58 173d 007c da38
00000390: 5ca4 dabc 7497 c83c a394 01bd 861e a2bc
000003a0: 48c5 ce3c 6a27 24bd e1f3 8a3d ee5e 36bd
000003b0: 0629 4f3d 606b b5bb 78ee 2c3d 3ae5 07bd
000003c0: 5335 41bd f028 d03c eea3 bfbc 203d 92bc
000003d0: 2ce8 62bd 4063 2fbb 2a4e 433d ba6e 85bd
000003e0: 4868 163d 90be eb3c 807f 9fbc fc0d ba3c
000003f0: 87be b2bc c468 82bd 39b2 903d b2c3 b7bc
1.3494248 -0.25448874 -0.11625778 0.30996093 -0.42373508 1.2826387 0.55418205 -1.259831
-0.25864884 0.3775175 0.6225927 -0.35479385 -0.25324804 1.0869784 0.48146656 0.8374814
-0.21841551 -0.5994267 -1.0402789 0.13944839 0.39284983 0.55369043 0.78249377 0.63882464
0.51975197 -0.5356592 -0.29695904 0.57445604 -0.027565297 0.48434764 0.013908328 1.2418833
-0.0876608 0.48357144 -0.07629423 -0.93914545 -0.8946717 0.5582332 -0.70479983 0.5754521
0.45212877 0.3465694 -0.7123788 0.24169098 -0.15330482 -0.57478726 -0.3595887 -0.67483497
-0.41908768 1.0001936 -0.5217867 0.67378414 0.45201036 0.3199498 -0.4174844 0.86100286
-0.14793412 -0.24006295 0.78015274 0.051798943 0.9364116 -0.5170372 0.53920007 -0.50383544
-0.16690148 -0.69388145 -0.73331213 0.31049058 -0.27166745 -0.85028315 0.14854863 0.08633909
-0.17196694 0.074911505 0.34472772 0.2493713 0.54375356 0.4233346 0.599795 -0.7792802
0.54730815 -0.251965 0.6208048 0.66326815 0.028048065 -0.029362183 -0.6422158 0.0072160135
0.9395426 0.65559155 0.08632586 -0.8954661 -0.8934183 0.107215725 0.3540578 -0.3242372
-0.4171896 0.46956345 0.89316887 -0.19361179 -0.6688969 0.36275092 -0.37332562 0.62082094
0.41268536 -0.3895867 0.12863013 0.24027893 -0.061922748 -0.04107104 0.20860852 -0.13841887
0.28297836 -0.15502849 0.10272976 -0.51966995 -0.47382244 0.59249884 0.61283565 0.13127603
0.6777703 0.14460832 1.0641961 0.22008003 0.6912933 0.07472046 0.16976975 0.6448894
0.71649176 0.40030557 1.1731608 -0.21363819 -0.48589835 0.24429433 0.24162526 0.030914323
0.533197 0.5652988 0.7177586 -0.5704699 0.20001912 0.42201942 0.45298767 0.89309645
0.5752774 1.0438219 -0.53052706 -0.8603054 0.61476064 -0.6470775 -0.19382216 -0.5422574
-0.43922183 0.5801986 0.4918708 1.4862547 0.127485 -0.7498808 0.14426878 0.58039564
0.65418947 0.5179424 0.81094074 -0.8401226 0.30987808 0.70017 0.33276373 -0.6109981
0.28039017 -0.6395977 -0.11690459 0.49660006 0.62259966 0.49930942 0.688648 -0.8642934
0.0040852125 0.67578137 0.67753774 -0.8016714 0.8978602 -0.6604985 -0.06804216 -0.12579443
0.8116278 0.6111025 -0.20188765 -0.84714764 -0.24258101 -1.0629869 -0.9200588 0.4712311
0.28074324 1.2387332 -0.36094335 0.52987534 0.0038716197 -0.047690727 -0.030592434 -0.026902065
-0.031957168 -0.035774037 0.056108885 -0.04330941 -0.044870686 0.036293477 -0.05317036 -0.049257204
-0.0055118054 0.02384673 -0.03339198 0.01353544 -0.019960184 -0.00551261 -0.008893721 -0.062899604
-0.023739059 0.068821914 -0.034976296 0.054606386 -0.06156524 -0.050598256 0.0479977 -0.056591216
0.05726332 0.007211402 0.03694939 0.00010418147 -0.0266897 0.024486281 -0.03163589 -0.019789945
0.025240555 -0.04007665 0.067847975 -0.044524126 0.050576232 -0.0055364817 0.04221961 -0.03317759
-0.047169995 0.025410146 -0.023393597 -0.017851412 -0.055397198 -0.0026762038 0.047681965 -0.0651526
0.036720544 0.02877739 -0.019469976 0.022711746 -0.021819366 -0.06367639 0.07065243 -0.022432182

l1.bias f4 [8]
00000000: 8319 5d3f 586d 95bd f188 123f 013c 003f
00000010: f1a0 8b3f 9830 393f d8c6 533f de78 0b3f
0.8636705 -0.07296246 0.57240206 0.5009156 1.090849 0.72339773 0.82725286 0.54481304

l2.weight f4 [8, 8]
00000000: 94f1 0c3f a64f 263e c235 383f 720a 413f
00000010: 0082 99bf a2be 0440 71cd 4b3f 3627 0a40
00000020: fb1e a4bf 82e8 673e c204 753e 39ce f4bf
00000030: 8c0e 2b3f f2b7 403f 98c0 a23f b125 6dbf
00000040: b564 aebf e1c1 f43c 8ca7 c73f e2e3 cfbf
00000050: 94b5 01be 1e86 c83f 0348 d63f 3870 923f
00000060: 4074 0f40 e812 1f3d e638 d3bf 6cde 86be
00000070: 8812 863f 52cb aebe da11 f63f f048 5a3e
00000080: 86f3 583e f242 e53d 571e 543e 9e01 2fbf
00000090: 2731 d53f 00f6 6bbf 4128 ad3f dfdb 69bf
000000a0: bf86 6abe 72d6 7a3e 726b 9ebe e15d 0bbe
000000b0: 64a4 ed3d 00b1 30bb b8cf 32bd 9ae5 563e
000000c0: 9a3a 1ebe 86ef 71be e00c 8f3d 90fc c3bc
000000d0: a7c3 45be a2ac 253e 31e6 40be b671 a4be
000000e0: 8428 adbf c8c5 22bd d2dc f03f 9358 1340
000000f0: 065a 0540 7199 843f 654f 99bf e2aa 783f
0.5505612 0.16241321 0.7195703 0.75406563 -1.1992798 2.0741353 0.79610354 2.1586432
-1.2821954 0.22647288 0.23927596 -1.9125434 0.6681907 0.7528068 1.2715025 -0.9263564
-1.3624483 0.029877605 1.5598006 -1.6241419 -0.12666923 1.5665929 1.6740726 1.1440496
2.2414703 0.03883639 -1.6501739 -0.2634157 1.0474405 -0.34139496 1.9224198 0.21316886
0.21186647 0.111944094 0.20714699 -0.6836184 1.6655625 -0.9217224 1.352791 -0.9135112
-0.22902964 0.24495867 -0.3094135 -0.1361003 0.11603621 -0.002696097 -0.043655127 0.20986024
-0.15452042 -0.23626527 0.069848776 -0.023924142 -0.19312917 0.16179135 -0.18837811 -0.32118005
-1.3527989 -0.0397394 1.8817389 2.3022811 2.0836196 1.0359327 -1.1977354 0.97135746

l2.bias f4 [8]
00000000: 5852 503d 79ac 2e3f 1c5f 183d e280 713f
00000010: d5b8 cb3e 1533 30be 3d38 91be 593b fc3e
0.05085978 0.6823192 0.03720008 0.94337285 0.39789453 -0.17206986 -0.2836322 0.4926403

l3.weight f4 [12, 8]
00000000: f84c a33e 9ba3 aabf d4c9 693e d346 3fbf
00000010: 339d 65be 8c6d e5bd b0d0 283d 04a0 1d3e
00000020: df37 febe 939d 143f 001a 1c3f d565 8abf
00000030: 67f5 c83e bc93 033e 1bf5 5ebe 8913 3bbe
00000040: 8f50 cf3e 9ec8 d8bf 409e 01c0 f74a dcbe
00000050: faad 37c0 00fb e8bb 6fd8 a0be 1b89 643f
00000060: 3639 13bd 69b6 43c0 9f62 90bf 452a 5b3f
00000070: 0cd4 8d3e 989c 02bd 13ad 11be 929a dabf
00000080: 7431 c8bf 60c5 f8bf 576b e8bf 150c 803e
00000090: f983 0e3f bce4 b2bd 0ce5 91bd d241 5c3f
000000a0: 4a92 353f 7f2a da3e 31aa 6d3f 738f d0bf
000000b0: d0e7 0ac0 a814 a43d 8285 5e3e 93df d1be
000000c0: 2f5c 12bf 7a6e ab3f 40e6 993e 61f2 403e
000000d0: b2e9 453e 9aa3 053e 002d 07bb c21d 02c0
000000e0: 2a0d 24c0 cac0 233f 20bb 36be e0d1 77bd
000000f0: 63e4 5e3f 3a86 363e bf10 2bbe 18fc 7cbb
00000100: f572 843f f07d fdbf 9936 f3bf 2c3e 2e3f
00000110: 6381 1ac0 d5b9 993e 0863 853d c6f1 52bf
00000120: fab0 2a3d 692a 40bf 9fc0 c43d 5577 26c0
00000130: 17ac b0bf 64a4 fbbd 61b4 5fbe 10d5 833f
00000140: da38 203f 0f57 87bf 85f3 2c3f efdf 433e
00000150: efa7 9bbf 785e 703d 9c01 cf3d a04c b8bf
00000160: d0bd 22c0 7733 95be 5481 88bf 4687 293f
00000170: b25d 853f 4090 f93c 2fe5 803e d32e d9bf
0.3189466 -1.3331178 0.22830898 -0.74717444 -0.22423248 -0.11202535 0.041214645 0.15393072
-0.49652 0.5805294 0.6097717 -1.0812327 0.39249727 0.12849325 -0.21773188 -0.18269171
0.4049115 -1.6936224 -2.0252838 -0.43025944 -2.8699937 -0.0071099997 -0.31415126 0.89271706
-0.035943232 -3.0580084 -1.1280097 0.85611373 0.2770084 -0.03188762 -0.14226179 -1.7078421
-1.5640092 -1.9435234 -1.8157758 0.25009218 0.55670124 -0.08735034 -0.07123765 0.86037934
0.70926344 0.42610547 0.92837816 -1.6293777 -2.1703987 0.08011752 0.21730617 -0.40990886
-0.5717191 1.339309 0.3005848 0.1884246 0.19327429 0.1305069 -0.0020626187 -2.0330663
-2.5633035 0.6396605 -0.1784482 -0.060502887 0.8706724 0.17824641 -0.16705607 -0.0038602408
1.0347582 -1.9804058 -1.9001037 0.68063617 -2.4141471 0.3002459 0.06513029 -0.82400167
0.041672684 -0.7506471 0.09607052 -2.6010334 -1.3802518 -0.122872144 -0.21846153 1.0299397
0.6258675 -1.0573443 0.6755908 0.19128393 -1.2160624 0.058683842 0.10107729 -1.4398384
-2.5428352 -0.29140827 -1.0664468 0.66222036 1.0419219 0.030464292 0.25174853 -1.6967415

l3.bias f4 [12]
00000000: f8e4 a7be ec66 d5be 7087 303f 52f5 753c
00000010: 2554 033f 22fb a8be 62ff 923e 3e03 5abe
00000020: 2fde 983e e044 72be 7317 1dbe 4e50 443e
-0.32791877 -0.41680086 0.6895666 0.015012102 0.5130027 -0.330041 0.28710467 -0.212903
0.29857013 -0.23659086 -0.15340976 0.19171259
