data.pth (torch, 12401 bytes, 6 tensors)

l1.weight f4 [8, 196]
0	0x3e6403cb	0.22267072
1	0x3e515a9f	0.20444725
2	0x3e5ba8cb	0.21451108
3	0x3f2c2453	0.67242926
4	0x3d248409	0.04016498
5	0x3d0f8383	0.03503753
6	0x3ed7c72a	0.42144138
7	0x3f418c4f	0.7560472
8	0x3d30ced0	0.04316598
9	0x3edfbd37	0.43699047
10	0x3dbd7d78	0.09252447
11	0x3da18333	0.078863524
12	0x3e90e3c6	0.28298777
13	0x3f194820	0.5987568
14	0xbdceb068	-0.100922406
15	0xbee52d6c	-0.44761217
16	0x3e074bdf	0.13212536
17	0xbeaad4cf	-0.33365485
18	0x3e8e5ea2	0.27806574
19	0xbec10909	-0.37702206
20	0xbdaae2e8	-0.0834406
21	0x3f023abe	0.50870883
22	0xbe626da6	-0.2211214
23	0x3eaa8525	0.33304706
24	0x3de745cc	0.112926096
25	0xbe28eeb4	-0.16497308
26	0x3e2b347d	0.16719241
27	0x3ea8d7f7	0.32977268
28	0xbe2095a1	-0.15682079
29	0x3ef2847c	0.47366703
30	0xbeac41f0	-0.33644056
31	0xbe067b45	-0.13132961
32	0x3ea4e727	0.32207605
33	0xbdb61d4e	-0.08892308
34	0x3e26c0de	0.1628451
35	0xbdd6e054	-0.10492006
36	0xbec34585	-0.38138977
37	0xbe383b4a	-0.17991367
38	0x3dc868f0	0.0978564
39	0x3eaa1e6f	0.33226344
40	0x3ebba6b2	0.36650616
41	0x3f3c3530	0.7351866
42	0x3e3c00c5	0.18359669
43	0x3e36c5fb	0.17848961
44	0x3e049133	0.12946014
45	0xbe06b2e9	-0.13154186
46	0xbdc305e1	-0.09522606
47	0x3e0894b9	0.13337983
48	0xbe928c5c	-0.2862271
49	0xbe8c0bc0	-0.27352715
50	0x3d3c485c	0.045967445
51	0x3ef9c8d0	0.4878602
52	0x3e4dbcae	0.20091507
53	0xbcda673d	-0.026660556
54	0x3e7699f3	0.24082164
55	0xbeae00ff	-0.33985135
56	0xbd570a1f	-0.052499887
57	0x3e5837ad	0.21114989
58	0xbe6a3c1d	-0.22874494
59	0xbd99ebd9	-0.075156875
60	0xbe941aa9	-0.2892659
61	0x3e04b8b7	0.12961088
62	0x3b1c88a2	0.002388515
63	0x3d9d5533	0.07682266
64	0x3d193b6f	0.037410196
65	0xbebc4e7c	-0.3677863
66	0x3e0cb5f3	0.13741283
67	0x3eab7382	0.33486563
68	0x3ea31ad5	0.3185641
69	0x3d69ddc5	0.05709626
70	0xbe3f0f8e	-0.18658277
71	0xbebe52e1	-0.37172607
72	0x3d878f34	0.06619111
73	0xbeaf8892	-0.34283882
74	0x3f1b051c	0.6055467
75	0x3e466997	0.19376217
76	0xbe605a7e	-0.2190952
77	0xbe5140b9	-0.20434846
78	0xbe3a8c1c	-0.1821751
79	0xbe3e2c14	-0.18571502
80	0x3e891252	0.2677179
81	0x3e8c2281	0.27370074
82	0x3e8ee39a	0.2790802
83	0xbddc31c8	-0.107516825
84	0x3dc74595	0.097300686
85	0xbd40a0bd	-0.047028292
86	0xbe159601	-0.14608003
87	0x3ec194eb	0.37808928
88	0x3eebe103	0.46070108
89	0xbe982df2	-0.29722553
90	0x3e1f145d	0.15535112
91	0xbec610bd	-0.38684645
92	0x3eb0949e	0.34488386
93	0xbdcfdb72	-0.10149278
94	0xbe7d4c9b	-0.24736254
95	0x3e822ddf	0.25425622
96	0x3e202e87	0.15642749
97	0xbdd443fe	-0.10364531
98	0xbd1d1076	-0.038345776
99	0x3da0bb1e	0.0784819
100	0xbe943974	-0.28950083
101	0x3e2b8e85	0.16753586
102	0x3e58fc90	0.21190095
103	0x3e91de59	0.2848995
104	0x3f0c14cb	0.5471923
105	0x3e3a7c96	0.18211588
106	0x3e1c2eb7	0.15252195
107	0x3e84a2d6	0.25905484
108	0x3dccc3f9	0.09998316
109	0xbe06e8c1	-0.13174726
110	0x3ec3f0dc	0.382697
111	0xbed57c43	-0.41696367
112	0x3ee10ca5	0.4395496
113	0x3e712990	0.23551011
114	0x3e9bb32c	0.30410135
115	0x3ca91107	0.020638002
116	0xbea28735	-0.3174378
117	0xbe7d7fce	-0.24755785
118	0x3e75fcc9	0.24022211
119	0xbe91a15e	-0.28443426
120	0xbe1ea8a3	-0.15494017
121	0xbe9a880f	-0.3018193
122	0xbd8ea321	-0.06964708
123	0x3ea0157b	0.31266388
124	0xbe06d7e8	-0.13168299
125	0xbec0b921	-0.37641242
126	0x3e8fafc7	0.28063795
127	0x3e23c974	0.15994817
128	0xbe6be3e1	-0.23036148
129	0x3ddbc468	0.10730821
130	0x3f0b9c39	0.5453525
131	0x3e81b655	0.2533442
132	0xbec4677f	-0.3836021
133	0x3ee8dea2	0.45482355
134	0x3ebdcd38	0.37070632
135	0xbdb33ba4	-0.0875161
136	0xbd32f838	-0.04369375
137	0x3d0a9a1b	0.033838373
138	0x3ed14fab	0.40881094
139	0x3ef38647	0.47563383
140	0x3dde207a	0.10846038
141	0x3ef43b7b	0.4770163
142	0x3d7dc484	0.06195499
143	0x3ed21009	0.4102786
144	0x3ebe05df	0.37113854
145	0x3f199993	0.5999996
146	0xbeb60a1e	-0.35554594
147	0x3e1e5d2d	0.15465231
148	0x3ea93dff	0.33055112
149	0x3e8eb821	0.27874854
150	0x3ec65156	0.3873393
151	0xbe1f6346	-0.15565214
152	0xbe903515	-0.28165498
153	0x3e949e50	0.29027033
154	0x3e92a11a	0.28638536
155	0xbec24aca	-0.37947685
156	0x3edd7872	0.43255955
157	0x3eaee16b	0.34156355
158	0x3ebd6f15	0.3699881
159	0x3ed4a0f0	0.41529036
160	0x3e952a78	0.29133964
161	0xbe48a770	-0.19595122
162	0xbe2b018f	-0.16699813
163	0xbe386f22	-0.18011144
164	0x3cada3df	0.021196304
165	0x3ec4ccac	0.38437402
166	0x3e4224e6	0.18959388
167	0x3e23647e	0.15956303
168	0xbe5401a4	-0.20703751
169	0x3e432ff7	0.19061266
170	0x3ecc5980	0.39912033
171	0xbe16240b	-0.14662187
172	0x3ea539ac	0.32270563
173	0xbd413e4a	-0.047178544
174	0xbe63b36b	-0.22236411
175	0xbdab6bfa	-0.08370204
176	0x3e6f1ead	0.23351546
177	0xbe3917bc	-0.1807546
178	0x3eaa0abf	0.33211324
179	0x3e533eab	0.20629375
180	0x3e97b893	0.29633006
181	0xbe7ea75e	-0.24868533
182	0x3d873135	0.06601182
183	0x3c81fe94	0.015868463
184	0xbd7bad3c	-0.061444506
185	0xbe18cc82	-0.14921764
186	0x3ec45131	0.38343194
187	0x3f3f3dc5	0.7470363
188	0xbe9cd50c	-0.30631292
189	0x3db0e9f9	0.08638377
190	0xbecefeb8	-0.4042871
191	0x3ef3e799	0.47637632
192	0x3e34a103	0.17639546
193	0xbd6286f9	-0.0553045
194	0x3ec149e7	0.37751696
195	0xbe781208	-0.24225628
196	0x3e996bc1	0.29965022
197	0x3e003ec3	0.12523942
198	0x3e7fb4a4	0.24971253
199	0x3e822a0f	0.25422713
200	0x3e10f816	0.14157137
201	0xbe670901	-0.22562028
202	0x3eb15234	0.34633029
203	0x3f061d5a	0.52388537
204	0xbd9de2fe	-0.07709311
205	0x3e72a675	0.23696311
206	0x3ec9585c	0.39325225
207	0x3ce727dd	0.02821725
208	0x3e451577	0.1924647
209	0x3e4014c7	0.18757926
210	0x3d40df57	0.047087993
211	0xbef84fe7	-0.4849846
212	0xbd30ef38	-0.043196887
213	0x3d8d5751	0.0690142
214	0x3e48c47b	0.19606201
215	0x3ed83154	0.42225134
216	0x3d060449	0.03271893
217	0x3f150ee1	0.5822583
218	0xbef2be23	-0.47410688
219	0xbcb97c78	-0.02264236
220	0x3e695649	0.22786821
221	0xbe0629f1	-0.13101937
222	0x3d3010e9	0.042984877
223	0xbda6408d	-0.08117781
224	0x3efbd996	0.49189442
225	0x3e5074a3	0.20356993
226	0x3f046b43	0.5172617
227	0x3eadd9e0	0.33955288
228	0x3e7f3761	0.24923469
229	0x3dba3be6	0.09093456
230	0x3e546637	0.20742117
231	0x3e63fbf3	0.2226408
232	0xbde0ce15	-0.10976807
233	0xbe11a40d	-0.14222737
234	0xbe2f2db9	-0.17107286
235	0x3dec1b25	0.11528615
236	0x3e947a12	0.28999382
237	0x3edfdd6f	0.43723628
238	0xbe8787e3	-0.2647086
239	0x3eb23020	0.3480234
240	0x3ea5f6b0	0.3241477
241	0xbe0df6a0	-0.13863611
242	0x3e7ec5cf	0.24880145
243	0xbe0a61d0	-0.13513875
244	0x3e991e10	0.29905748
245	0xbecc607a	-0.39917356
246	0xbd915ad7	-0.070974045
247	0x3d5ea879	0.054359887
248	0x3e5e33c8	0.2169944
249	0x3e9d84ea	0.30765468
250	0x3e9cc0cb	0.3061584
251	0xbe78d375	-0.24299414
252	0x3ea07205	0.3133699
253	0x3d4ec433	0.05048008
254	0xbdeadd87	-0.11468034
255	0x3e42bc98	0.19017255

l1.bias f4 [8]
0	0x3ef60868	0.48053288
1	0x3ed74c6c	0.42050493
2	0x3ef1b8d7	0.47211334
3	0x3ebedab5	0.37276235
4	0x3f04585b	0.5169732
5	0x3f06adfe	0.5260924
6	0x3ee798bf	0.45233724
7	0x3ecc0d94	0.3985411

l2.weight f4 [8, 8]
0	0x3f97993e	1.1843641
1	0x3f9253a4	1.1431775
2	0xbf03ceab	-0.51487225
3	0x3ecd9c12	0.40158135
4	0xbf556857	-0.83362335
5	0x3f29f31b	0.66386575
6	0x3f8864f3	1.0655807
7	0xbe04e54a	-0.12978092
8	0xbdffdff0	-0.124938846
9	0x3eaa6715	0.3328177
10	0xbe62e475	-0.22157462
11	0xbeacc2c3	-0.3374234
12	0xbe925314	-0.2857901
13	0xbdfeefca	-0.1244808
14	0xbe62ae11	-0.22136714
15	0xbe9b287e	-0.3030433
16	0xbe37caf6	-0.17948517
17	0x3f720091	0.94532114
18	0xbe8de86b	-0.27716383
19	0x3d94bc82	0.072625175
20	0xbf90cda5	-1.1312758
21	0x3f7163e1	0.9429303
22	0xbeab957c	-0.33512485
23	0x3f2b6a88	0.6695943
24	0xbf017c59	-0.50580364
25	0x3e7425ea	0.23842588
26	0x3f8322f4	1.0245042
27	0x3e41b9b4	0.18918496
28	0x3f2e199a	0.68007815
29	0xbe5d8997	-0.21634518
30	0x3f9abdd6	1.2089183
31	0xbea16d3b	-0.3152865
32	0x3f5700d7	0.83985656
33	0xbdba451a	-0.09095211
34	0x3f186e36	0.5954317
35	0x3dfe0b99	0.12404556
36	0x3f859c3e	1.0438306
37	0x3c64486c	0.013933282
38	0xbec6a8d4	-0.3880068
39	0x3d3a1848	0.045433313
40	0x3f78627a	0.97025263
41	0x3ecc0d5c	0.39853942
42	0x3eee7ecf	0.46581122
43	0xbf1891b4	-0.59597325
44	0xbd6315d1	-0.055440728
45	0xba8b9f75	-0.001065238
46	0xbdb1ff5f	-0.08691286
47	0x3f7bcbec	0.98358035
48	0xbe4f86d8	-0.20266283
49	0x3eee646c	0.4656099
50	0xbf2a7a0e	-0.6659249
51	0x3fa4e5fb	1.2882684
52	0x3f2abdab	0.6669566
53	0x3f4625ce	0.77401435
54	0x3f0709a1	0.5274907
55	0xbf33fffc	-0.70312476
56	0xbf011357	-0.50420135
57	0x3e89347c	0.26797855
58	0xbe9b7f79	-0.3037069
59	0xbc1e3bb9	-0.009657794
60	0x3ed33130	0.41248465
61	0x3f8e53da	1.111934
62	0xbf1351f1	-0.5754691
63	0x3fa73340	1.3062515

l2.bias f4 [8]
0	0x3e51cce7	0.2048832
1	0xbe66ed19	-0.22551383
2	0xbd625d3e	-0.055264704
3	0xbd8555b0	-0.06510484
4	0xbe017fb8	-0.12646377
5	0x3eb384ee	0.35062355
6	0x3edaf9bc	0.42768657
7	0x3e9b3fcd	0.30322114

l3.weight f4 [12, 8]
0	0x3f05f2c2	0.52323544
1	0xbe69457f	-0.22780417
2	0xbf9ea83f	-1.2395095
3	0xbcc3fd3c	-0.023924462
4	0xbe8ca635	-0.27470556
5	0xbea394ad	-0.31949368
6	0x3eedd4e4	0.46451485
7	0xbf963a11	-1.173647
8	0xbf1101c5	-0.56643325
9	0x3e168c3e	0.14701936
10	0xbf48c4df	-0.784254
11	0x3f09cff3	0.5383293
12	0x3f08fec3	0.53513736
13	0x3e8972bc	0.26845348
14	0xbfb8a878	-1.4426413
15	0xbfd0ea79	-1.6321555
16	0x3e181929	0.14853348
17	0x3e610fc6	0.21978673
18	0x3f217dd7	0.6308264
19	0xbf5a323e	-0.85232913
20	0xbfc073ce	-1.5035341
21	0xbf524605	-0.8213809
22	0x3e9d69f9	0.30744913
23	0x3e503e7b	0.20336334
24	0xbe80eddc	-0.25181472
25	0xbdf3f1a4	-0.11911324
26	0xbf9cff48	-1.2265406
27	0xbe64e10a	-0.2235147
28	0xbd030d79	-0.03199527
29	0xbfad02b1	-1.3516446
30	0x3f2d6bfb	0.6774289
31	0x3eaafc8e	0.3339581
32	0x3e44e7a7	0.19228993
33	0x3eb24b3b	0.3482302
34	0x3f300784	0.6876147
35	0xbf6d4cad	-0.9269512
36	0xbf069aa3	-0.52579707
37	0x3ebb1f33	0.3654724
38	0xbfbc49fc	-1.4710078
39	0xbd05954b	-0.03261308
40	0xbf9d5d0c	-1.2294021
41	0xbda01a84	-0.078175575
42	0x3e7f7edb	0.24950735
43	0xbf38b27d	-0.7214735
44	0xbed8cc74	-0.42343485
45	0x3ebc989e	0.36835188
46	0xbf96614c	-1.1748443
47	0x3f2c7c0a	0.6737677
48	0xbf76606a	-0.96240866
49	0xbeac454e	-0.33646625
50	0xbfbc082f	-1.4689997
51	0xbeabf8a7	-0.33588144
52	0x3f0a59b3	0.5404312
53	0x3eba7707	0.36418936
54	0xbf698115	-0.9121259
55	0x3e5132fc	0.20429605
56	0x3d1621cf	0.036653336
57	0x3d2166d8	0.03940472
58	0xbf8a5630	-1.0807552
59	0x3f504c7c	0.81366706
60	0xbf0df02c	-0.554446
61	0xbecc8d80	-0.39951706
62	0xbe5c6b76	-0.21525368
63	0x3e3f0c47	0.18657027
64	0x3f19fc5b	0.6015069
65	0xbe022f8e	-0.12713453
66	0xbf41845b	-0.75592583
67	0xbf5b371b	-0.8563096
68	0x3c0e347f	0.008679508
69	0x3f2d7a4e	0.6776475
70	0xbf6b72c9	-0.91972023
71	0xbfb1b163	-1.3882259
72	0x3e9771ff	0.2957916
73	0x3ea4987f	0.32147595
74	0xbe894b45	-0.2681524
75	0xbf7f312c	-0.99684405
76	0x3cc428c9	0.02394523
77	0xbe885ec3	-0.26634797
78	0xbcc99761	-0.024608316
79	0x3e629177	0.22125803
80	0xbf449005	-0.76782256
81	0xbeaca79a	-0.3372162
82	0xbed9f635	-0.42570654
83	0x3f309679	0.68979603
84	0x3e92fb15	0.28707185
85	0xbfb62808	-1.4230967
86	0x3f076307	0.5288548
87	0xbf977413	-1.1832298
88	0x3f05b95c	0.5223596
89	0x3e1af75e	0.15133426
90	0x3e49558f	0.19661544
91	0x3dfeb22a	0.12436326
92	0xbf8eadbe	-1.1146772
93	0xbfc715ed	-1.5553566
94	0x3f0c1b55	0.54729205
95	0xbf52aa35	-0.82290965

l3.bias f4 [12]
0	0xbee2c9ce	-0.4429459
1	0x3d84606d	0.06463704
2	0xbec6f897	-0.38861534
3	0x3ef38faf	0.4757056
4	0xbeb16ab2	-0.34651715
5	0x3e16a752	0.14712265
6	0x3e89e3cf	0.26931617
7	0x3c306366	0.010765886
8	0xbe37eab2	-0.17960623
9	0xbea433bd	-0.32070723
10	0xbd994b41	-0.07485057
11	0xbedb1bc1	-0.42794612
