Dự án 1/data.pth (torch, 12401 bytes, 6 tensors)

l1.weight f4 [8, 196]
0.07302465 0.41851234 0.47935945 -0.33738655 0.25167787 0.41631615 0.57647574 0.9766598
0.5250903 -0.030464701 0.7380322 0.20805943 0.44280836 -0.27605483 -0.070001185 -0.7043994
0.52861184 0.5225985 0.7604904 -0.7025329 -0.061210558 0.7190246 -0.44657525 -0.10661097
0.19281316 -0.011629221 0.29460612 -0.1219671 -0.05816737 0.26714817 -0.7224242 -0.18647848
0.64535606 -0.01374882 0.56411564 0.69233966 -0.17331862 -0.28042272 -0.27389577 -0.072686255
-0.4552721 -0.5600403 -0.22180437 0.19491848 0.36200997 -0.44582805 0.50702673 -0.4808379
0.364514 0.12252669 0.37260568 0.2487009 -0.30835223 -0.23154747 0.45586598 -0.63792783
-0.03700632 0.09553266 -0.45739764 -0.3664075 0.143322 0.37870094 -0.12775107 -0.24909706
-0.4296621 0.61120677 0.27109295 0.53341824 0.48399284 -0.17557576 0.0116490275 -0.663444
0.3580714 -0.01812144 -0.33162504 -0.040885814 -0.30194 -0.45306605 0.05550526 -0.30780077
-0.19001928 0.4491038 -0.060782485 -0.43508318 0.076380275 0.04135989 -0.31143734 0.115575105
-0.49690565 -0.4635529 0.43939105 -0.09145146 0.5349729 0.043817468 -0.48734474 0.36145455
-0.27146634 -0.055516686 -0.21949202 0.51732635 0.50340205 -0.15030706 0.35593307 -0.10107109
-0.118306585 0.2742041 0.0680466 0.517859 -0.124601096 -0.30572397 -0.42528683 0.49137816
-0.022068229 0.36653376 -0.32764137 0.35931322 0.37938416 -0.2472353 -0.11839904 -0.69651616
-0.4292646 0.12363325 -0.09966947 0.2806153 0.056344517 0.030432587 0.6954514 -0.46967626
-0.027600255 -0.40375406 -0.21615784 0.4432647 0.41116643 0.11958988 -0.047251467 -0.027521715
-0.15569942 -0.1588507 -0.21981068 0.35156924 -0.022161018 -0.5025548 -0.11043785 -0.5215922
-0.12776682 -0.22482829 0.44893306 0.6231951 -0.13705473 0.49038035 -0.34082136 0.025769036
0.4489262 -0.17924301 0.21803755 0.29814273 -0.49612683 0.4684983 -0.41530383 -0.14114286
-0.22837356 -0.5039626 0.23549896 -0.13193831 -0.40821728 -0.20520505 0.36005658 -0.093232825
-0.28954962 -0.27709696 0.5838492 -0.07762188 -0.10920473 -0.12676111 -0.38778666 -0.57709557
-0.19937603 0.09163439 -0.18278676 -0.25874627 0.14764793 0.33518735 0.31149912 0.025762782
-0.48453212 -0.2518141 0.3351599 0.6934489 0.22563095 0.51684445 0.58282566 -0.13410962
0.19737302 -0.18249522 0.5962344 -0.19378944 0.70208037 0.28247672 0.4391335 0.5463429
-0.154824 0.8364846 0.7859776 -0.054285586 0.35149664 0.48327428 0.65440774 0.3759186
0.5479407 0.51818955 0.44746575 0.39906406 0.37201917 0.4989058 -0.4864707 -0.47743353
0.3350686 0.93998 0.17658883 0.2656248 0.60910046 -0.08882005 0.39135334 0.38418964
-0.25006282 0.85257775 -0.48587224 0.27808124 0.5019839 0.43288717 0.32881886 0.52277213
-0.24588266 0.29317164 0.037280016 0.20125201 0.3828849 0.72723734 -0.043978445 0.3701174
0.5003471 0.02964397 0.4011145 -0.3165511 0.38868698 0.6478637 0.2890741 0.5133223
0.014902462 -0.15557303 0.71077603 0.331229 -0.21086091 0.46084812 0.48686698 -0.41397175
00000000: f38d 953d 4047 d63e 9a6e f53e eebd acbe
00000010: ecdb 803e 6427 d53e ea93 133f 6006 7a3f
00000020: 516c 063f 1c91 f9bc aeef 3c3f 880d 553e
00000030: c7b7 e23e 0f57 8dbe c85c 8fbd 8553 34bf
00000040: 1b53 073f 04c9 053f 80af 423f 32d9 33bf
00000050: ecb7 7abd ff11 383f 83a5 e4be da56 dabd
00000060: d070 453e 7d88 3ebc 9dd6 963e e3c9 f9bd
00000070: e840 6ebd a5c7 883e cbf0 38bf 37f4 3ebe
00000080: 0e36 253f bb42 61bc e269 103f 2c3d 313f
00000090: 707a 31be 9193 8fbe 113c 8cbe 88dc 94bd
000000a0: 6d19 e9be cd5e 0fbf af20 63be b698 473e
000000b0: 5f59 b93e 9343 e4be 81cc 013f 6330 f6be
000000c0: 94a1 ba3e 46ef fa3d 2cc6 be3e 73ab 7e3e
000000d0: 58e0 9dbe c81a 6dbe 4467 e93e 3d4f 23bf
000000e0: f093 17bd a1a6 c33d 0630 eabe c499 bbbe
000000f0: 01c3 123e 17e5 c13e 2dd1 02be 4d13 7fbe
00000100: acfc dbbe 0c78 1c3f b2cc 8a3e 198e 083f
00000110: e9cd f73e 22ca 33be 90db 3e3c 77d7 29bf
00000120: 2255 b73e 6a73 94bc c2ca a9be e277 27bd
00000130: e197 9abe 46f8 e7be 7c59 633d 1098 9dbe
00000140: 6a94 42be eff0 e53e 0ef7 78bd 39c3 debe
00000150: 436d 9c3d fd68 293d b774 9fbe a4b2 ec3d
00000160: 6b6a febe ce56 edbe ddf7 e03e e74a bbbd
00000170: fcf3 083f f279 333d 4085 f9be 9210 b93e
00000180: a3fd 8abe 7765 63bd 84c2 60be 806f 043f
00000190: f5de 003f 18ea 19be dc3c b63e 5cfe cebd
000001a0: b94a f2bd 7b64 8c3e 045c 8b3d 6892 043f
000001b0: dc2e ffbd da87 9cbe 32bf d9be eb95 fb3e
000001c0: 6ec8 b4bc 50aa bb3e 9cc0 a7be e7f7 b73e
000001d0: a43e c23e 402b 7dbe 327b f2bd e24e 32bf
000001e0: 92c8 dbbe 6e33 fd3d 821f ccbd cfac 8f3e
000001f0: 82c9 663d c34d f93c 1a09 323f 6879 f0be
00000200: ee19 e2bc dab8 cebe 7b58 5dbe 97f3 e23e
00000210: 6884 d23e 8aeb f43d c18a 41bd 3875 e1bc
00000220: ab6f 1fbe c2a9 22be 0d16 61be e200 b43e
00000230: 068b b5bc 6ea7 00bf 3d2d e2bd 1187 05bf
00000240: 4ed5 02be 6339 66be 8eda e53e b789 1f3f
00000250: 1358 0cbe 2213 fb3e 2380 aebe 9619 d33c
00000260: a8d9 e53e 7b8b 37be 3c45 5f3e 2aa6 983e
00000270: 5604 febe 02df ef3e b4a2 d4be c187 10be
00000280: c2da 69be b103 01bf a426 713e d61a 07be
00000290: db01 d1be 4621 52be 5659 b83e daf0 bebd
000002a0: d93f 94be a7df 8dbe 2477 153f 38f8 9ebd
000002b0: bba6 dfbd aacd 01be f98b c6be 89bc 13bf
000002c0: 3b29 4cbe d0aa bb3d 742c 3bbe 647a 84be
000002d0: 0531 173e ad9d ab3e d07c 9f3e 780c d33c
000002e0: 9814 f8be c7ed 80be 149a ab3e de85 313f
000002f0: cd0b 673e eb4f 043f 1034 153f 0854 09be
00000300: 271c 4a3e 07e0 3abe d1a2 183f bd70 46be
00000310: 8abb 333f caa0 903e 1bd6 e03e 21dd 0b3f
00000320: 2f8a 1ebe db23 563f d435 493f 905a 5ebd
00000330: 5ef7 b33e ba6f f73e 4487 273f 6778 c03e
00000340: d745 0c3f 12a8 043f 3b1a e53e 2052 cc3e
00000350: 4c79 be3e 9570 ff3e b012 f9be 2b72 f4be
00000360: 1d8e ab3e 87a2 703f b4d3 343e f9ff 873e
00000370: 02ee 1b3f 49e7 b5bd 775f c83e 81b4 c43e
00000380: 3c08 80be 8942 5a3f 3fc4 f8be aa60 8e3e
00000390: 0482 003f 63a3 dd3e f25a a83e 65d4 053f
000003a0: aac8 7bbe 981a 963e eeb2 183d 0215 4e3e
000003b0: 7d09 c43e 3a2c 3a3f be22 34bd 0780 bd3e
000003c0: bf16 003f e9d7 f23c e15e cd3e fc12 a2be
000003d0: fb01 c73e 65da 253f 8501 943e 1769 033f
000003e0: 7529 743c 894e 1fbe 6bf5 353f d996 a93e
000003f0: eceb 57be 49f4 eb3e a146 f93e 1bf4 d3be

l1.bias f4 [8]
0.45677218 1.0140924 0.52343357 0.5570917 0.41869947 0.48041618 0.5736535 0.6391103
00000000: 0bde e93e c8cd 813f beff 053f 909d 0e3f
00000010: c75f d63e 1cf9 f53e f5da 123f bc9c 233f

l2.weight f4 [8, 8]
-0.4151095 0.26702565 1.0005811 1.6040449 -1.046983 1.1870425 -0.12585907 -0.2901757
-0.8991917 0.50418025 -0.287165 0.17186804 -0.781103 1.4598851 -0.6969951 0.9407767
-1.2945 0.30076697 0.07411085 1.0303003 1.5265663 0.42756334 1.2868662 1.578326
1.4686116 1.3085706 0.98708016 -0.48812053 -0.7365858 0.141226 -1.0582467 0.9409824
-0.07584229 0.06049955 0.021050751 -0.0701517 0.054786652 -0.03052792 -0.024153735 -0.31230265
-0.22711971 -0.10568394 0.18765894 -0.021023273 -0.29358727 0.11351082 -0.27890134 -0.24508265
0.34994578 1.3104056 -1.3313845 0.7799459 0.2470488 0.3169351 1.1522812 -0.9789114
-0.065586954 -0.31676963 0.03675589 -0.19928864 -0.3009856 0.27914074 -0.123396695 -0.27856308
00000000: 3b89 d4be 96b7 883e 0b13 803f 5851 cd3f
00000010: 8a03 86bf 02f1 973f 33e1 00be e991 94be
00000020: 6d31 66bf f511 013f 4a07 93be 2dfe 2f3e
00000030: 5ef6 47bf 84dd ba3f 456e 32bf bed6 703f
00000040: 2db2 a5bf 21fe 993e 6ec7 973d e1e0 833f
00000050: 8666 c33f 95e9 da3e 08b8 a43f 9606 ca3f
00000060: 77fb bb3f 3e7f a73f 49b1 7c3f efea f9be
00000070: e390 3cbf 8c9d 103e a174 87bf 39e4 703f
00000080: 3453 9bbd 60ce 773d a072 ac3c b2ab 8fbd
00000090: f867 603d b015 fabc 0ede c5bc 22e6 9fbe
000000a0: 1292 68be d270 d8bd aa29 403e 0039 acbc
000000b0: 1251 96be 5c78 e83d 28cc 8ebe f2f6 7abe
000000c0: 182c b33e 5fbb a73f cf6a aabf 89aa 473f
000000d0: 5cfa 7c3e 5145 a23e f37d 933f f099 7abf
000000e0: 7452 86bd a12f a2be 588d 163d 5212 4cbe
000000f0: c91a 9abe 89eb 8e3e 68b7 fcbd d29f 8ebe

l2.bias f4 [8]
0.09446056 0.3297243 0.24221598 0.54134387 -0.29710865 -0.13681465 0.6535152 -0.22606528
00000000: 8a74 c13d a0d1 a83e 7707 783e 8395 0a3f
00000010: a01e 98be 2419 0cbe c64c 273f a87d 67be

l3.weight f4 [12, 8]
0.5435899 0.21358874 -0.29034916 -0.18375635 -0.017583316 0.31091622 -0.31984136 0.15273741
-0.09785896 0.6639211 -0.1605192 0.3677232 0.12047882 -0.22590394 -1.9389408 -0.07962167
0.2726161 0.019299483 0.6195563 -1.221003 0.081047066 0.038882673 -1.1310581 0.33909032
-1.8278023 -1.0599753 0.35698587 -1.3267787 -0.22774693 -0.29674646 0.81710905 -0.08185321
0.5551866 -0.20838712 -1.5480314 0.35627636 -0.30434567 0.2207934 -0.08976918 -0.2031285
-1.1341476 -1.611379 0.8111656 0.17478038 0.236699 -0.32790643 -1.3653318 -0.11471099
-0.5879215 -1.4938623 -0.26081836 -0.029037325 -0.08203119 -0.17505825 0.7354082 0.10288766
-1.8670043 -1.0666717 -1.4277096 0.69711685 0.18472172 0.28007033 0.5712205 0.021131873
-0.7590562 0.32635984 0.20665875 -0.063817985 -0.3537408 0.20076999 -0.18255681 0.034159392
-0.08168745 -1.2560639 -0.87816346 0.94967335 0.0045811892 0.33574042 -1.7728211 0.29520342
0.06899808 0.2177124 -0.2922701 -0.98968476 -0.011957668 0.14435315 0.60077745 -0.34496656
0.063010015 -1.4405673 0.51468974 -1.6832643 0.086665004 -0.09990695 0.056444637 0.21095863
00000000: b528 0b3f 02b7 5a3e a5a8 94be a02a 3cbe
00000010: e30a 90bc 6930 9f3e 3fc2 a3be 3267 1c3e
00000020: 476a c8bd bcf6 293f 255f 24be 3746 bc3e
00000030: 99bd f63d 5d53 67be 362f f8bf b010 a3bd
00000040: 5694 8b3e f319 9e3c 3e9b 1e3f d449 9cbf
00000050: 01fc a53d 7043 1f3d 83c6 90bf 3f9d ad3e
00000060: 6df5 e9bf 45ad 87bf dac6 b63e e2d3 a9bf
00000070: 7e36 69be 27ef 97be 0f2e 513f a8a2 a7bd
00000080: b620 0e3f 6f63 55be e525 c6bf db69 b63e
00000090: 32d3 9bbe aa17 623e e7d8 b7bd eb00 50be
000000a0: c02b 91bf ab41 cebf 8ca8 4f3f a1f9 323e
000000b0: 3961 723e 5ae3 a7be 31c3 aebf 98ed eabd
000000c0: 0682 16bf e136 bfbf fc89 85be afdf edbc
000000d0: f8ff a7bd 7842 33be b643 3c3f c4b6 d23d
000000e0: fff9 eebf b388 88bf 30bf b6bf 4076 323f
000000f0: b127 3d3e 6165 8f3e 823b 123f c01c ad3c
00000100: 8251 42bf a318 a73e 5a9e 533e 01b3 82bd
00000110: 841d b5be a696 4d3e 2cf0 3abe b8ea 0b3d
00000120: c04b a7bd b4c6 a0bf 52cf 60bf cb1d 733f
00000130: cd1d 963b 2be6 ab3e cdeb e2bf e724 973e
00000140: de4e 8d3d 00f0 5e3e 6da4 95be fb5b 7dbf
00000150: 18ea 43bc 50d1 133e 8dcc 193f 759f b0be
00000160: 650b 813d 8264 b8bf b5c2 033f 3475 d7bf
00000170: 6c7d b13d 049c ccbd 7e32 673d 8a05 583e

l3.bias f4 [12]
-0.64495057 -0.1897147 0.019116966 -0.09790337 -0.16643828 0.41415316 0.10278235 0.17930149
-0.5793562 0.26208362 -0.34616333 -0.2718979
00000000: 7b1b 25bf 9244 42be 2f9b 9c3c 9081 c8bd
00000010: cc6e 2abe e20b d43e 8d7f d23d cf9a 373e
00000020: b050 14bf d32f 863e 523c b1be 3436 8bbe
